save_model/robotic_hand_real/pytorch/peg_in_hole_model.pkl (torch_old, 86118 bytes, 6 tensors)

weight f4 [128, 10]
00000000: 87f5 173e 3759 d8bd 3064 bdbd 3ff8 773e
00000010: 7b04 493e ef52 81be e9a9 983d ce96 493d
00000020: a3f6 2d3b 29e4 413e bace 073e 25eb 6c3e
00000030: 5daa abbd 6bdc d5bd 4f13 53be eb08 d4bc
00000040: 2ea3 25bd a8e2 663e d26a 8a3d 5f94 a63d
00000050: 0f2b fc3d 2fa6 2fbe ee55 223e d033 61be
00000060: f01c 81bd ac40 673e fd80 193d 91cd c0bb
00000070: ef7a 9e3d 42d4 07be e68b 393d 70a8 8d3d
00000080: bfed 55be 8171 d53d c6d3 9fbc 0bd2 82be
00000090: 3832 59be 0fcc 54be 25c4 153e 28b5 963d
000000a0: 77b3 1abc aa00 16bd d5e0 6cbb 909a 673e
000000b0: f7a3 9abc e105 253e 6925 f13d 8930 ccbd
000000c0: c80a b4bd 1db6 e03d 69d8 8bbe e1fb 4f3e
000000d0: f3fa 23be 2bea 0a3e cbb8 17be 95fb a83e
000000e0: d512 54be 1d91 593e 34f9 233e 4b90 df3d
000000f0: 4087 39bc b648 c7bd 9cf9 3b3e 98ea 79be
00000100: 4c5b 4fbd 66a0 68bd c663 363e ff3b 5dbd
00000110: 3824 423c 8308 9dbc 3b4a 813e 635c 873d
00000120: 5b4c 4d3e 0849 c0bd dd54 bf3d f0db 62be
00000130: 0344 b13d ed61 80be 9025 d5bd e23b 25be
00000140: c65f 923d b408 603d 147e 24be 2c4b 54be
00000150: ea62 41be 00cf d9bd 6b6f 913c 71be 18bd
00000160: f900 19be 22de d4bd e989 403e 5ba8 0dbd
00000170: a0dc 8bbd 1a5e 10be afa3 f1bd 1237 9c3e
00000180: d018 8abd 1e3e 973d 8565 093e 1dc4 833c
00000190: dbdc 06be e055 593d 64b1 1d3d 2beb 89bd
000001a0: b726 933e eae0 bbbc 6e96 a9ba 985f d63d
000001b0: 42de 15bc 8300 ddbd a4bf 72bd 9b7e 6b3e
000001c0: 10bc 7abe 758c a53d 5981 6dbe f732 9a3d
000001d0: 293e 673a ef12 2fbe 3031 95bd 0e8c 01be
000001e0: afd9 283d f838 adbc 6416 2d3d fba8 0ebe
000001f0: 59ff fc3d 7ea1 923e 6395 21be f090 163e
00000200: 2df6 7a3c 42fb 2ebe 5a54 6bbe f593 9dbd
00000210: f0e6 df3c 4cd8 41be 1e4a e5bd d92a a53e
00000220: 9bc7 1f3d f019 68bd 26de 303e 2b9d c4bd
00000230: dba0 883e ee4a c2bd f377 eebd 23d6 83bd
00000240: a01e 8ebe 68d6 703e 0f72 833e c3ee b93c
00000250: a8f0 65be 57aa 76be 7e77 053e 4ea2 e4bc
00000260: 8f0f 093e db31 ffbc e141 853e 06a0 3ebe
00000270: 77ba 6fbd 55fb 1d3e bda4 6a3d 8e4b a93d
00000280: 43cc 4bbe d790 ca3c 3c6e 053e eeb6 9e3d
00000290: 98b9 9e3e 257b 54be fbfd 25be 85a0 6d3e
000002a0: 62ca 1fbe 0516 253e 9e24 973e fa6a 153e
000002b0: 7ef4 043e edac 6fbd 0791 f13d a8b9 443e
000002c0: fc80 af3d 1d9a bebd 8b85 463d 16b5 903c
000002d0: 2f05 303d 113f 3d3e f44f 553e c146 e83d
000002e0: c4a5 853c 0af9 2a3e 63f5 263e c805 03be
000002f0: 73ec 193d 50bc a7bd a035 753e 793d 433d
00000300: 3b1e dcbb 8986 b93d 8bf6 ebbd cf06 543e
00000310: 0edb ebbb ae4b f1bd 5522 3c3e 77a2 10be
00000320: cbb3 3b3e d4f0 fc3d b0e9 0fbc 33ef 6fbe
00000330: 1f25 25be cd41 b03e 307b c13d bdb5 49bd
00000340: e089 9f3d c0fc 523d fbf5 133e 58f2 993d
00000350: 33a6 8dbe 5d3a 2abe 76cc 3cbe 7d47 16be
00000360: 887f c63d 63d4 81be 45ad 503d e771 0dbe
00000370: 7aa2 d3bd a981 c63d d628 13be b65f 0b3e
00000380: 90d3 b33c aed1 6ebe c9ad 15bc 3d0b a53d
00000390: 5a11 0a3e adcf eebd 0c21 163e baa4 88be
000003a0: 3e31 93ba 4aeb 803e d610 813e 98e5 2d3e
000003b0: 357d 15bb 1f01 7f3e 1af2 0d3e 6363 7d3d
000003c0: 0d72 b1bd ce6a 38bd 5441 753e c7db 823e
000003d0: 094a ebbc 5455 923d a605 c33c 53ab 09be
000003e0: c66b 1d3e a6aa 26be 19f8 a33e 9e44 72bd
000003f0: a3ef 49be b2c0 023e 9adc 493e be11 e33d
0.14839755 -0.105638914 -0.09247625 0.24215792 0.19630615 -0.25258586 0.07454283 0.049216084
0.0026544712 0.18934692 0.13262454 0.23136576 -0.083821036 -0.10442432 -0.20612834 -0.025883159
-0.040438823 0.225474 0.067586556 0.08133768 0.123129 -0.17153238 0.15853092 -0.21992421
-0.063043475 0.22583264 0.03747653 -0.0058838804 0.077382915 -0.13264564 0.045299433 0.069168925
-0.20891474 0.1042204 -0.019510161 -0.25550875 -0.21210563 -0.20780967 0.14625604 0.073587716
-0.009442202 -0.036621727 -0.0036144753 0.22617555 -0.018877013 0.16115524 0.117747135 -0.09970195
-0.08791119 0.10972235 -0.27313545 0.20310928 -0.16013698 0.1356589 -0.14816587 0.33004442
-0.20710309 0.21246763 0.16013032 0.109161936 -0.01132375 -0.097306654 0.18356937 -0.24405897
-0.050624177 -0.056793593 0.17811498 -0.054012295 0.011849456 -0.019169098 0.25251946 0.06609418
0.20048659 -0.093889296 0.09342358 -0.22154212 0.0865555 -0.2507471 -0.10407555 -0.16136125
0.071471736 0.0546958 -0.1606372 -0.20731801 -0.18885389 -0.10635185 0.017753324 -0.037290994
-0.14941777 -0.10393931 0.18802609 -0.034584384 -0.0682919 -0.14098397 -0.11798798 0.30510765
-0.06743014 0.07384895 0.13417633 0.016084725 -0.13170187 0.053060412 0.03849925 -0.06734308
0.28740475 -0.022934396 -0.0012938508 0.10467452 -0.009147229 -0.10791113 -0.059264794 0.22997515
-0.24485803 0.08083431 -0.23193873 0.07529252 0.0008821213 -0.17097066 -0.072847724 -0.12651083
0.041223224 -0.021145329 0.04225768 -0.13931648 0.12353391 0.28638834 -0.15779643 0.14703727
0.015317482 -0.17088035 -0.22981396 -0.07694236 0.0273318 -0.18930167 -0.11195777 0.32259253
0.039008718 -0.05666536 0.17272243 -0.0960029 0.26685223 -0.09486948 -0.11643972 -0.06437328
-0.2775774 0.2351929 0.25672957 0.022696858 -0.22455084 -0.24088417 0.13033864 -0.027909424
0.13384841 -0.031151703 0.26026824 -0.18615732 -0.058527436 0.15427907 0.057286013 0.08266364
-0.19902138 0.024727268 0.13030332 0.07749735 0.31000972 -0.20750101 -0.16210167 0.23205765
-0.15604547 0.16121681 0.29520124 0.1459159 0.12983891 -0.058514524 0.1179524 0.19211447
0.08569524 -0.093067385 0.0484672 0.017664474 0.042973693 0.18481089 0.20831281 0.1134162
0.016314395 0.16696563 0.16304545 -0.12795174 0.03757901 -0.08190215 0.23946238 0.047666047
-0.006717471 0.09058864 -0.11521634 0.20705722 -0.007197744 -0.11782013 0.18372472 -0.14124475
0.18330304 0.12350622 -0.008783743 -0.23431091 -0.16127442 0.34425202 0.09447324 -0.049245585
0.077899694 0.051510572 0.14449303 0.075169265 -0.27665862 -0.16623826 -0.1843737 -0.14675708
0.096922934 -0.2535735 0.050946493 -0.13812982 -0.10333724 0.096926995 -0.14371046 0.1361073
0.021951467 -0.23322174 -0.009135672 0.08058784 0.13483182 -0.11660705 0.14661044 -0.26688176
-0.0011229885 0.2517951 0.25208157 0.16982114 -0.0022810225 0.24902771 0.13861886 0.06186236
-0.086643316 -0.045023732 0.23950702 0.25558302 -0.028721826 0.07145181 0.023806404 -0.13444261
0.15373144 -0.16276035 0.3202522 -0.05914747 -0.1972032 0.1276882 0.19713059 0.110873684

bias f4 [128]
00000000: da1d ea3d 8b6b 3fbe 6e6f d1bd 9da0 f3bd
00000010: 2e7e 283e 8335 963d 4ab6 d8bd 797c 8bbe
00000020: 6c78 563d 7b75 873e 25b6 67be d8ea 08be
00000030: 1d5c 483e cd6d 023e 982c a5be 3e14 483e
00000040: 163e 9e3d 06a6 23be 39da 5abe eafa ab3d
00000050: f49c b43d a8ad b43d 54b9 133e b818 af3c
00000060: 7da5 24be fb92 5abc 6dec 713d 6f9f bebe
00000070: 5722 89be a825 bdbe dd7c e1bd c9c6 b2ba
00000080: 2a1f f43d 52dd 273e f697 9dbe ed92 0ebe
00000090: b00f 80be 065e 5bbe 83c7 873c f0bb 003e
000000a0: 2068 8dbe 068d 123e f13e a1be 78fe 88bd
000000b0: 7a8b 143d e1b7 82be c01a 15bd e52b 0a3e
000000c0: 5c67 07be c155 8abe 787e 0b3d cdae 8dbd
000000d0: a423 a83c f7f1 b63d 1207 16be 76b1 8dbe
000000e0: d0c5 6b3e fcb6 073e 1a80 eb3d 1528 56be
000000f0: 0b55 e03d 1814 84be b2ba 89be 9612 993c
00000100: 56bc ea3d d101 bbbc ee71 2ebd e97d 3fbe
00000110: 2c9f 8a3e e1f9 653d c496 0dbe d191 1cbe
00000120: cca3 243e 4a9d 17be 8f9f 713d fc21 513e
00000130: 6845 033e 8c38 7c3e 3a24 b3be f357 d5bd
00000140: 2ce9 f6bc 9a5d 71be 411d 2dbd 698e 3abe
00000150: 1a91 7e3b f60f e43d 060c 6e3e 1974 a4be
00000160: ed39 02be 1295 5cbe 04e7 6ebe fe91 f4bc
00000170: 1b40 633e 207e 53bd f11e 743e 9f58 b4be
00000180: 5d12 1bbe fa8f cfbd f467 95be 8665 d9bc
00000190: c882 bb3c e0c4 3a3d 1127 623d 2387 25bd
000001a0: 9f0f 513e 3bc0 bebd fe8f 72be 4407 f2bd
000001b0: 5f7a e7bd 956e acbe 5e00 253d d566 f1bc
000001c0: 282b 04be 4499 1a3d 6817 2f3d 3ebe 8d3e
000001d0: 0cd7 0ebe fc6b f5bd 1f9c 3dbe 18da 933e
000001e0: fca3 1dbc b41f 3fbe 4561 dd3d 7286 94be
000001f0: 8ac7 ea3c 6f85 b83d e123 3e3e c40a 883e
0.11431475 -0.18693368 -0.10226332 -0.11895869 0.16454384 0.07334425 -0.10581644 -0.27243403
0.052360937 0.26456818 -0.22628076 -0.13370836 0.19566388 0.12737198 -0.32260585 0.19538972
0.07726686 -0.15981302 -0.21372308 0.083974674 0.08818999 0.08822185 0.14426166 0.021374092
-0.16078754 -0.013340707 0.059063364 -0.37231013 -0.26784012 -0.36942792 -0.11010144 -0.0013639565
0.119200066 0.16393021 -0.3078 -0.13923235 -0.2501197 -0.21422586 0.016574627 0.12571692
-0.27618504 0.14311609 -0.31493333 -0.06689161 0.036265828 -0.25530913 -0.036402464 0.13493307
-0.13223022 -0.2701855 0.034056157 -0.06918106 0.020524807 0.0893287 -0.14651135 -0.27674454
0.23024678 0.13253397 0.11499043 -0.20913728 0.10953721 -0.2579658 -0.2690025 0.01868562
0.114617035 -0.022828015 -0.04258912 -0.18700375 0.27074564 0.056146506 -0.13827044 -0.1529
0.16078109 -0.14806095 0.058990058 0.2042312 0.12819445 0.24630946 -0.34988576 -0.104171656
-0.030140482 -0.23570862 -0.042264227 -0.18218388 0.0038843811 0.11135857 0.23246774 -0.32119825
-0.1271741 -0.21541241 -0.23330313 -0.02985477 0.22192423 -0.051633954 0.23839928 -0.35223863
-0.15143724 -0.10134883 -0.29180872 -0.026537668 0.02288951 0.04559791 0.055213038 -0.04041208
0.20416115 -0.09314009 -0.23687741 -0.11817792 -0.11302637 -0.33678117 0.040283553 -0.02946798
-0.12907088 0.03774382 0.04274693 0.27684206 -0.13949221 -0.11983487 -0.18516587 0.2887733
-0.009621616 -0.18664438 0.10809568 -0.29008824 0.0286596 0.090098254 0.18568374 0.26570714

weight f4 [128, 128]
00000000: 55f3 a73c cbac 2e3d 8d7f 493c d5c0 a7bc
00000010: d0ae 94bc 81f6 ea3c 5400 7cbc 175f 82bd
00000020: 8c48 493d f1ae 913d 7746 543d a613 7c3d
00000030: d7d2 7fbd 74f6 f63c cf79 2e3d 1cfc ad3b
00000040: d0da 16bd 7edb 543c 2bab c53c 134e 123c
00000050: db58 66bd 029a b2bd 52f9 1e3d 67d4 59bd
00000060: 6a10 3a3d 3469 083d 340b 77bd fe4d a7bb
00000070: 027b 65bd 49c2 49ba 6358 893d 3a59 b1bc
00000080: a0fb 5ab8 e729 813c 995b 073d c31e 99bc
00000090: ee90 1d3a a1c0 2f3c 71ae fb3c 0ef6 80bd
000000a0: 6edf c03b 27df ab3d f011 cfbd 3fce 0cbd
000000b0: 8257 933b 54e7 59bd 80aa 873d 65e3 5cbd
000000c0: 0efb f93c ad45 a23b b930 93bd 416f 883c
000000d0: d249 06bd 1b0c a5bd 9fee 0a3b 59e9 cfbc
000000e0: 860c 68bd 9de8 4e3c 8a3d 39bd ed72 8bbd
000000f0: 2ae7 34bd 0b5a c3bc 1c05 d4bd c598 2a3c
00000100: 0b75 48bd 658f a83b ee52 873d c297 b6bd
00000110: 25ec 5c3d 1aa1 56bc 2a9e c93c 0aa2 af3c
00000120: 329e b53c c017 593d 2890 fbbc 9c73 50bb
00000130: 0860 62bd 7110 913d def3 cabd 255a 34bd
00000140: 1edd 0fbd a08d 94bd 7d92 003c 5fa7 643d
00000150: 7154 8ebc 4916 80bd e6ff 0e3d 7eb1 c7bd
00000160: 942e 903d 6980 343d d3cf 03bc f00c 6dbc
00000170: dd73 d73c febb 7fbd 35af d23d 516b c3ba
00000180: 1980 e03c 38e4 cf3c 7e97 d93c 6bf8 58bd
00000190: 632d 82bd 17f5 a3bd 5d73 703c 2296 5dbd
000001a0: dcc7 7b3d d669 2dbd 52d1 063d e12c 7a3d
000001b0: 43c0 babd a7f3 55bd 180d 153c bad0 58bd
000001c0: 6a90 253d 2be9 39bc 9dcf 8ebd f804 a03d
000001d0: b9d8 69bd f66f f0bc 8144 653c e5e5 b73d
000001e0: 35ce 65bc 40dd 80bd 4ede 963b 0538 1abd
000001f0: 18ec 29bd 15eb b9bb 9e70 863d 4595 8a3d
00000200: f43c 4e3d f606 463d c35a 8dbc 0eb2 88bd
00000210: a648 453c b20c 9bbd c693 6f39 2a92 2e3d
00000220: 1695 833b bd56 cbbc bfdc 8aba 378e 95bc
00000230: e023 02bc 54d8 40bd a7d7 57bc 44c7 713d
00000240: 8b46 813d 20bb 753d 8f6f 0ebd 27d9 423d
00000250: 8e2c 70bc 8320 303d 708d bd3c b331 2d3d
00000260: ba9e 86bd 9851 9f3d 91f5 b6bd fe47 b3bd
00000270: 5123 50bd c198 14bd ca87 04bc 118d b3bb
00000280: c86e 37bd 1dad 343d 4adb 74bd 12bd 7bbd
00000290: 2ca7 fa3c 0429 b5bd e382 8b3c cd03 173d
000002a0: cc37 8c3d 18d5 093d a916 94bd 747b b0bc
000002b0: 3ec0 9d3c 8e50 b3bc b1ff 94bc 3d1d 9dbc
000002c0: df06 9ebd d52d cebc 01a5 13bc fbe3 68bd
000002d0: 2599 4ebd 7d35 3e3c a8d0 52bd 46ed 6e3d
000002e0: ba45 823c 961b 8d3d 41ed 9c3c 9c21 e93c
000002f0: 105a 9b3c e52f 79bd 42b4 42bd 4796 07bd
00000300: d2af 4f3b 3c88 9a3c e467 25bc 1ef3 17bd
00000310: 093d 343c 6541 833c 8d70 b8bc f7a9 773d
00000320: bb92 353d eb88 a3bc 6146 3bbd 5e7d 42bc
00000330: 849a 873c a7fd c7bc 2eb6 99bb 0f60 f23c
00000340: 89aa 21bd 23cd 70bc 8646 92bd 3ee6 34bc
00000350: b440 9b3d 7ac2 923c 97a0 ad3d 8da2 3dbd
00000360: 0a34 a7bd 3247 75bd 7bd3 dfbc b79f c13d
00000370: c4d8 dcbc b3e4 4fbc e555 de3c 1f27 fabc
00000380: 36ae 8dbc 4c2d b1bc 62ac 89bd dd59 333b
00000390: 8f85 f23c 8c76 9c3b ea35 2abd 1ed4 613d
000003a0: 53e7 bd3c 782b 73bd 8fef 0f3c 202a 84bd
000003b0: 6a4d 2e3d a970 053d e976 f43c 82b4 90bd
000003c0: fb6f 20bb 068c c4bc d9dc 4abd f6b2 e83b
000003d0: 45c9 8fbd 3fa1 3f3d 4354 603d 0994 e23b
000003e0: 6ccb cc3d e348 453d e7fb 98bb 5b0c 663c
000003f0: 460f 253d 2340 33bc 0c9e 6f3d a820 5ebd
0.020501772 0.042645257 0.012298477 -0.020477692 -0.018149763 0.028681995 -0.015380938 -0.06365793
0.04914145 0.071134456 0.051825013 0.061542176 -0.062456932 0.030146815 0.042596634 0.005309595
-0.03682977 0.012991784 0.02412947 0.008929747 -0.056237083 -0.08720781 0.03881199 -0.05318108
0.04542581 0.033303455 -0.06031342 -0.005105733 -0.056025513 -0.0007696492 0.067063116 -0.021648992
-5.2209594e-05 0.01576705 0.03304634 -0.018691426 0.0006010671 0.010727079 0.030722829 -0.06296931
0.00588601 0.08392172 -0.10110843 -0.03437638 0.0044965157 -0.053199127 0.06624317 -0.053927798
0.03051522 0.0049521537 -0.071870275 0.016654612 -0.032785244 -0.080589496 0.0021199358 -0.025379824
-0.05665257 0.0126287015 -0.045224704 -0.0680903 -0.044165768 -0.023846647 -0.10352537 0.0104124
-0.048939746 0.005144047 0.066076145 -0.08915664 0.053936142 -0.013099933 0.024611551 0.021439571
0.02217016 0.053001165 -0.030708387 -0.003180719 -0.055267364 0.07083214 -0.09909795 -0.04403128
-0.035122983 -0.07253575 0.0078474255 0.05582368 -0.01737425 -0.062542506 0.034912013 -0.09750651
0.07040134 0.044067774 -0.008045155 -0.014468417 0.026300365 -0.062435143 0.10287324 -0.0014909302
0.027404832 0.025377378 0.026561495 -0.052971285 -0.06356313 -0.080057316 0.014675942 -0.054098256
0.061469898 -0.04233726 0.032914467 0.061077956 -0.09118702 -0.052234318 0.00909736 -0.052933432
0.040420927 -0.0113470955 -0.06973193 0.07813448 -0.05709145 -0.029350262 0.013993383 0.08979396
-0.014026214 -0.062922 0.0046041375 -0.03765108 -0.041484922 -0.005673776 0.06564449 0.06766752
0.0503511 0.048346482 -0.017255193 -0.06674586 0.0120412465 -0.07570781 0.00022847866 0.04261986
0.004015575 -0.024821633 -0.0010594352 -0.01825629 -0.007943124 -0.047081307 -0.013173974 0.059027925
0.06312283 0.05999291 -0.03477436 0.047570374 -0.01465906 0.042999756 0.023138732 0.042283725
-0.065732434 0.07779235 -0.08933557 -0.08753966 -0.05081493 -0.03627849 -0.008089015 -0.005479463
-0.044783384 0.044110406 -0.059779443 -0.06145961 0.030597292 -0.08845714 0.017030185 0.03686886
0.0684658 0.033650488 -0.072308846 -0.021543242 0.019256707 -0.021888997 -0.01818833 -0.019178981
-0.07716154 -0.025168339 -0.009011508 -0.056858044 -0.05043902 0.011609432 -0.05146852 0.05833175
0.015902389 0.06890027 0.0191561 0.028458409 0.018963844 -0.06083669 -0.04753519 -0.0331023
0.003169049 0.01886379 -0.01009557 -0.03709709 0.01100088 0.016022393 -0.022514606 0.060464825
0.044329386 -0.019962749 -0.045721415 -0.01187071 0.016553171 -0.024412943 -0.004690907 0.02958682
-0.039469276 -0.014697346 -0.071423575 -0.011041222 0.075807005 0.017915 0.08477896 -0.0462976
-0.081642225 -0.05988235 -0.027322521 0.09454291 -0.02695883 -0.0126888035 0.027140567 -0.030536233
-0.017294984 -0.021628045 -0.067223325 0.0027366795 0.029604701 0.004774874 -0.041555323 0.05513393
0.023181593 -0.059367627 0.008785143 -0.06453347 0.042554297 0.032578144 0.029841857 -0.07065679
-0.0024480808 -0.02399255 -0.049527023 0.007101412 -0.07020811 0.046784636 0.05476786 0.00691462
0.09999737 0.048165213 -0.004668701 0.014041032 0.04029777 -0.010940584 0.058500335 -0.054230362

bias f4 [128]
00000000: cd3f 3abb 1503 41bc c5f7 14bd 0b75 9bbc
00000010: d3a9 8c3d 4bef 9c3b 7996 1fbd 3f9b 073d
00000020: 5a76 b93d 46cc b13c 4413 2d3d c69b 5fbd
00000030: 726e 1dbd a88c 993d 58a3 2dbb f5e1 c8bb
00000040: 607d 23bd a6fb a3bd ca1a 9fbc 3fb3 74bd
00000050: 356e 8bbd bf2b 5cbd b80f 563c 00a9 7d3d
00000060: 864b 2fbd 809d 7d3d 8951 763c b631 84bd
00000070: b57a 183d de76 ef3c de74 32bb 9c95 0f3d
00000080: bf7c f63d 201e b5bd d9de 733d c0cc 2c3d
00000090: d4aa c53c 9cb7 7e3d 619d a4bc ccf6 65bd
000000a0: b3f2 663d 798c 6e3c 837a d2bd 8a75 4dbc
000000b0: bbaf 86bd 94e9 c1bc f69a 193d 5775 64bd
000000c0: b2df 8dbd f65b 8ebd c0d1 bcbd 7daf ca3d
000000d0: d120 6bbd 40dc 893c 6a1e 32bd e688 48bd
000000e0: de22 05bd ed67 15bd 9030 0b3d 95aa 84bd
000000f0: 0ff4 adbc 7dd9 27bd b7a4 7bbd c719 8bbd
00000100: 327b 8b3c 73f4 18bd d838 263d 2b48 593d
00000110: 4fef 1ebd 4cfb f9bc f689 75bd cd1d 3bbc
00000120: 7f02 06bd 9eda 3dbd 717f b73c 3b00 9f3d
00000130: 0384 a23d 40e4 c03c 9bd9 9b3d d004 afbc
00000140: 3555 533d f513 983b 8166 933d 4592 2a3d
00000150: 6353 093d 77b7 60bd c088 f7bc d8b8 2f3d
00000160: 272a adbd 92fd 143d af0d a23d 81b0 38bd
00000170: 2d4f b53c c920 2f3e c179 2bbd 1aeb 2ebd
00000180: d842 48bd 2d85 143c 91fd 4abd f30a b63a
00000190: 85ef e23b 3523 e8bd 52e4 6e3b 7537 113d
000001a0: 74da c1bd f3b0 79bd 4e2b 803c 5db9 27bd
000001b0: 2d80 4fbd b19b 23bd 313b 8b3d ebea 75bd
000001c0: e9ca 933d 69cd 07be f50a a53d d2a4 c9bd
000001d0: b78c 3e3d 274a 84bb 2a22 54bd e615 2ebd
000001e0: 8f84 a6bc de47 38bd 3cd0 a1bd 5bac 8c3d
000001f0: 14eb da3c aa1e 8f3d 3096 4cbb 7727 8c3d
-0.0028419376 -0.01178052 -0.036369104 -0.018976709 0.06868329 0.004789268 -0.03896186 0.03310704
0.09055777 0.02170385 0.0422547 -0.054591917 -0.038435407 0.07497531 -0.0026495066 -0.006130452
-0.03991449 -0.080069825 -0.019421954 -0.059741255 -0.0680813 -0.053752657 0.013065271 0.06192875
-0.042796634 0.06191778 0.015034088 -0.06454794 0.037226398 0.029231485 -0.0027230303 0.035054788
0.12035512 -0.088436365 0.059538696 0.042187452 0.024129309 0.062186822 -0.020094575 -0.056143567
0.0563838 0.0145598585 -0.102772735 -0.0125402305 -0.06576487 -0.023670949 0.037501298 -0.055775966
-0.06927432 -0.06951134 -0.09219694 0.09896753 -0.057404343 0.016828656 -0.043486036 -0.04895868
-0.032503955 -0.036476064 0.03398186 -0.064778484 -0.02123454 -0.040978897 -0.06143638 -0.06792026
0.017026518 -0.0373425 0.040581554 0.05304734 -0.03880244 -0.030515336 -0.059946023 -0.011420679
-0.032717224 -0.046351068 0.022399636 0.07763716 0.079353355 0.023546338 0.07609864 -0.0213646
0.05159493 0.004641051 0.071972854 0.0416434 0.03352679 -0.054862466 -0.030216575 0.04290089
-0.084553055 0.036374636 0.07912766 -0.045090202 0.02213248 0.1710235 -0.04186416 -0.04270468
-0.048891872 0.009064955 -0.049558226 0.0013888761 0.0069255256 -0.1133484 0.0036452007 0.03545328
-0.09465495 -0.060959768 0.01564565 -0.04094826 -0.050659347 -0.0399434 0.06798399 -0.06003849
0.072164364 -0.13261952 0.080587305 -0.0984589 0.046520915 -0.00403716 -0.051790394 -0.042501353
-0.02032688 -0.044990413 -0.07901046 0.06868812 0.026723422 0.069882706 -0.0031217448 0.06843465

weight f4 [4, 128]
00000000: a5aa 403d b3f6 55bc 81f0 463c b2b6 323d
00000010: a2ef 08bd d9f2 2c3d 767c a2bb d16a 3dbc
00000020: 2313 8d3d bac6 d1ba 4aca 4e3d 8dea 523d
00000030: eabe 423d e305 5d3d c9af 813c ab67 5fbd
00000040: ca71 86bd 8f1c 29bd 9340 893c 5d12 19bd
00000050: b599 b83c 09ad 5fbd 4a7a 233d a1e0 ddbc
00000060: 087d 703a ea1d 923d 5972 fcbc 751c e8bc
00000070: 6be1 723b 4eaf 693d e57d 66bd 4a2d 6bbd
00000080: 822d 093c a734 f0bc b09f c53c b5c5 503d
00000090: eac1 313d 44bd f83b 07af 02bd e81f efbc
000000a0: 5b49 c9bc 2a15 06bd 453c 9dbd bc18 463d
000000b0: 98b2 5abd 7686 a7bb f012 4fbc 7cee 51bd
000000c0: 5eab e2bc 3902 1e3d da3c 563b 8f50 6abd
000000d0: 7a2a e0bc 0867 583d a28e 983c a394 423d
000000e0: 63b2 033d 05b4 843d 9200 8f3c af0f 463d
000000f0: 0dfa ec3a 2174 1abd cab8 36bd 01f0 bb3c
00000100: 8f69 b0ba 84d5 3f3d ee85 5d3d 054f 4fbd
00000110: ff75 58bd 9902 d1bb 76dd 643d dabf 6c3d
00000120: ae5d c6bc 72c8 b43a 615e 0abc b5cf a03c
00000130: f7df cdbc 0a9e 5abd d6ef 55bd dc54 043d
00000140: 9739 a4bc fce0 01bd 0f27 813d 4c9d 62bd
00000150: 1b71 01bd 8a3b 4fbd 264b dfbc 41b1 c73c
00000160: 3467 f4bc 496d 5abc 287a 233c e253 573b
00000170: 06a9 56bd 62c4 853d 6460 19bd 91a8 373d
00000180: 618a 463d 44c7 683d 0457 4f3d 8a1a 27ba
00000190: bc8f fbbc ec82 15bc e557 3dbd 00e2 d23c
000001a0: e385 7cbd fec3 89bc 42c4 4ebd 1eac 84bd
000001b0: 8c1d 7c3d e4d3 2c3c 945a 29bd 6ac2 55bd
000001c0: b435 f23c 011a 403d 7225 eeba 04f6 b1bd
000001d0: 295a 8f3d 8897 013d 0c9e 863d 79e1 0cbd
000001e0: a6f6 f53c 1fe6 7f3d 835b 6f3c 8d2f 71bd
000001f0: f79f 93bc a6aa 4f3b 9f32 0c3c 1531 c9ba
00000200: 20b4 aabd 5d88 9cbd e266 9c3c 2ff2 96bd
00000210: dc99 363d 681b 4dbd 6ffb 4d3d f3b0 94bc
00000220: 8000 3cba 7e1b 6b3d d8ab 06bd f73a 88bd
00000230: 0b38 2abc 983e a13d a0a8 4a3d 58a8 3e3d
00000240: 3e62 023c fd2b 6abc 5747 4fbd 2505 1abd
00000250: 97ff 193d 0fdc 51bd 67c5 433d e40f 52bd
00000260: 5fb6 503c adb1 12bd bab7 afbd 4003 213c
00000270: 3e79 6b3d 7521 58bd 6ce5 ee3c a56a 963c
00000280: a055 c1bd d5bd e73d 038f a53d b90f 7fbd
00000290: 0421 61bd 6b34 873c e237 8abb 50ee 7e3d
000002a0: 1796 82bd 4cea 62bd 701a b3bd 2f57 633d
000002b0: fa06 19bd 0f50 3b3b 1d7a 413d c403 4ebd
000002c0: d224 98bc df39 8cbd 922a 74bd e716 a7bd
000002d0: cf55 953d 7980 26bc eeaa 72bd c8a2 5cbc
000002e0: 008e 873c 39b0 e33c b670 babc 4bb4 df3d
000002f0: 7ea8 2cbd 7b56 c03c f648 14bc e795 273d
00000300: 25e9 813d 178f 4bbd 6299 08bd 2d95 293c
00000310: b4a2 103d 1727 95bd 5d66 10bd 4065 303d
00000320: 7825 81bd 439a b8bb f05b 8abd 70dc 4a3d
00000330: c731 1d3c 5c47 083d 6280 973d cbe7 33bc
00000340: 97c2 9d3d 4e03 383c 7564 95bc cc31 5e3d
00000350: b79b 283d 357d 643d b577 783d 9946 473d
00000360: 9bf9 4d3d 6d35 85bd fa18 20bd d899 803d
00000370: a6e0 8abc bc01 b03d 1dd6 9fbb 2b3e 373c
00000380: 3302 d63b 519b 4fbc 31a1 993d 6bae 4b3c
00000390: 1bd1 b83d d6a8 afbd 14f4 2d3c ccff 36bb
000003a0: 55ba 5dbd 98cc c73c aa65 253d b48d 88bd
000003b0: 28c6 2cbc 67f7 dbbc 4d3f cebc 24f8 a73b
000003c0: a46f 5ebd cf04 02be c0c7 9fbd 801b 00be
000003d0: 67c7 cdbd 00b3 61bd 896e fbbc 11ba 1a3d
000003e0: 1d48 37bd 0ae3 533b 1d4c 06be 843c 873d
000003f0: 71b3 15bd 73bd e4bc 79c3 283d 798e d3bc
0.04703774 -0.013059306 0.012142302 0.043631263 -0.033431657 0.042223785 -0.0049586846 -0.011561112
0.06888416 -0.001600466 0.050485887 0.051493216 0.04754535 0.053960692 0.015830891 -0.054542225
-0.06564672 -0.041287 0.016754424 -0.03737103 0.02253423 -0.05460838 0.039911546 -0.02708465
0.00091739045 0.07134612 -0.030816244 -0.028333882 0.003706063 0.05705195 -0.056272406 -0.057416238
0.008372666 -0.029321982 0.024123996 0.050969798 0.04339782 0.0075909216 -0.0319052 -0.029190019
-0.024571111 -0.032735027 -0.07677511 0.048363432 -0.053392977 -0.0051124645 -0.012638792 -0.051252827
-0.027669605 0.03857634 0.003269008 -0.057205733 -0.027364004 0.052832633 0.0186227 0.047505032
0.032152545 0.064796485 0.017456327 0.0483548 0.0018079892 -0.037708405 -0.044609822 0.022941591
-0.0013459193 0.046834484 0.054082803 -0.05061247 -0.052846905 -0.0063784835 0.055875264 0.05780015
-0.024214592 0.0013792648 -0.008445353 0.019630292 -0.025131209 -0.053373374 -0.05223068 0.03230749
-0.020046992 -0.031708702 0.06306278 -0.05532579 -0.031602006 -0.05059389 -0.027257513 0.024376513
-0.029834367 -0.01333172 0.009977855 0.0032856395 -0.052407287 0.06531598 -0.03744544 0.04483849
0.048471812 0.05683066 0.050620094 -0.0006374499 -0.030708186 -0.0091254525 -0.0462264 0.02574253
-0.06165112 -0.01681709 -0.050480135 -0.06478141 0.061551616 0.010548566 -0.041346148 -0.05218736
0.029566623 0.0468998 -0.0018169119 -0.08689502 0.069996186 0.031638652 0.06573114 -0.034394715
0.030024838 0.06247532 0.01460922 -0.05888324 -0.018020613 0.0031687408 0.008556991 -0.0015349711
-0.08335137 -0.07643197 0.019092027 -0.073704116 0.044580325 -0.050074965 0.050288614 -0.018150782
-0.00071717054 0.057399265 -0.032878727 -0.06651872 -0.010389338 0.07873267 0.04947722 0.046547264
0.007957993 -0.014292714 -0.050605144 -0.037602562 0.037597265 -0.051235255 0.04779568 -0.051284686
0.012738793 -0.035813976 -0.08579965 0.009827435 0.057488672 -0.052766282 0.029162131 0.018361399
-0.0944016 0.113155045 0.08083918 -0.062270854 -0.054963127 0.016504487 -0.0042180875 0.06223899
-0.063762836 -0.055399224 -0.08745277 0.055503067 -0.03736017 0.0028581654 0.047235597 -0.05029656
-0.018572245 -0.068469755 -0.05961091 -0.08158665 0.07291757 -0.010162466 -0.059245043 -0.013466544
0.016547203 0.02779399 -0.022758823 0.1092306 -0.042152874 0.023478737 -0.009050598 0.040914442
0.06343297 -0.049697008 -0.033349402 0.010350508 0.035311416 -0.072828464 -0.03525387 0.04306531
-0.06305975 -0.005633624 -0.06755817 0.04952663 0.009594387 0.03327118 0.07397534 -0.010980557
0.07703131 0.011231257 -0.018236378 0.05424671 0.041164126 0.05578347 0.060661037 0.04865131
0.05028687 -0.06504331 -0.03908632 0.06279343 -0.016952824 0.08594081 -0.004877819 0.011184256
0.006531024 -0.012671308 0.07501448 0.012431721 0.09024259 -0.08577125 0.010617275 -0.0027923463
-0.05413278 0.02438955 0.040380158 -0.06667653 -0.010545291 -0.026851369 -0.025176669 0.005126016
-0.054305688 -0.12697147 -0.07801771 -0.1251049 -0.100477986 -0.05510235 -0.030692356 0.037775103
-0.044746507 0.003233137 -0.13114972 0.06603339 -0.03654808 -0.027922368 0.041202042 -0.025824772

bias f4 [4]
00000000: 120b 0fbd 7a50 0b3d c5c4 003c 880a 813d
-0.034922667 0.034012295 0.0078594135 0.06300837
